Number of unique characters in our whole tunes database = 87
_________________________________________________________________
Layer (type)                 Output Shape              Param #   
=================================================================
embedding_3 (Embedding)      (16, 64, 512)             44544     
_________________________________________________________________
lstm_5 (LSTM)                (16, 64, 256)             787456    
_________________________________________________________________
dropout_5 (Dropout)          (16, 64, 256)             0         
_________________________________________________________________
lstm_6 (LSTM)                (16, 64, 128)             197120    
_________________________________________________________________
dropout_6 (Dropout)          (16, 64, 128)             0         
_________________________________________________________________
time_distributed_3 (TimeDist (16, 64, 87)              11223     
_________________________________________________________________
activation_2 (Activation)    (16, 64, 87)              0         
=================================================================
Total params: 1,040,343
Trainable params: 1,040,343
Non-trainable params: 0
_________________________________________________________________
Total number of characters = 155222
Epoch 1/80
Batch: 1, Loss: 4.466371059417725, Accuracy: 0.01171875
Batch: 2, Loss: 4.4474592208862305, Accuracy: 0.1689453125
Batch: 3, Loss: 4.430086135864258, Accuracy: 0.1376953125
…
